…
INFO - 12/18/25 13:58:26 - 0:00:00 - The experiment will be stored in ./cifar10_marked
                                     
INFO - 12/18/25 13:58:26 - 0:00:00 - Running command: python make_data_radioactive.py --carrier_id 0 --carrier_path 'carriers.pth' --data_augmentation random --epochs 10 --img_paths 'cifar10_images/0/0.png,cifar10_images/0/17.png' --lambda_ft_l2 '0.01' --lambda_l2_img '0.0005' --marking_network 'pretrained_resnet18.pth' --dump_path './cifar10_marked' --optimizer 'sgd,lr=1.0'

INFO - 12/18/25 13:58:26 - 0:00:00 - Model: ResNet(
                                       (conv1): Conv2d(3, 64, kernel_size=(7, 7), stride=(2, 2), padding=(3, 3), bias=False)
                                       (bn1): BatchNorm2d(64, eps=1e-05, momentum=0.1, affine=True, track_running_stats=True)
                                       (relu): ReLU(inplace=True)
                                       (maxpool): MaxPool2d(kernel_size=3, stride=2, padding=1, dilation=1, ceil_mode=False)
                                       (layer1): Sequential(
                                         (0): BasicBlock(
                                           (conv1): Conv2d(64, 64, kernel_size=(3, 3), stride=(1, 1), padding=(1, 1), bias=False)
                                           (bn1): BatchNorm2d(64, eps=1e-05, momentum=0.1, affine=True, track_running_stats=True)
                                           (relu): ReLU(inplace=True)
                                           (conv2): Conv2d(64, 64, kernel_size=(3, 3), stride=(1, 1), padding=(1, 1), bias=False)
                                           (bn2): BatchNorm2d(64, eps=1e-05, momentum=0.1, affine=True, track_running_stats=True)
                                         )
                                         (1): BasicBlock(
                                           (conv1): Conv2d(64, 64, kernel_size=(3, 3), stride=(1, 1), padding=(1, 1), bias=False)
                                           (bn1): BatchNorm2d(64, eps=1e-05, momentum=0.1, affine=True, track_running_stats=True)
                                           (relu): ReLU(inplace=True)
                                           (conv2): Conv2d(64, 64, kernel_size=(3, 3), stride=(1, 1), padding=(1, 1), bias=False)
                                           (bn2): BatchNorm2d(64, eps=1e-05, momentum=0.1, affine=True, track_running_stats=True)
                                         )
                                       )
                                       (layer2): Sequential(
                                         (0): BasicBlock(
                                           (conv1): Conv2d(64, 128, kernel_size=(3, 3), stride=(2, 2), padding=(1, 1), bias=False)
                                           (bn1): BatchNorm2d(128, eps=1e-05, momentum=0.1, affine=True, track_running_stats=True)
                                           (relu): ReLU(inplace=True)
                                           (conv2): Conv2d(128, 128, kernel_size=(3, 3), stride=(1, 1), padding=(1, 1), bias=False)
                                           (bn2): BatchNorm2d(128, eps=1e-05, momentum=0.1, affine=True, track_running_stats=True)
                                           (downsample): Sequential(
                                             (0): Conv2d(64, 128, kernel_size=(1, 1), stride=(2, 2), bias=False)
                                             (1): BatchNorm2d(128, eps=1e-05, momentum=0.1, affine=True, track_running_stats=True)
                                           )
                                         )
                                         (1): BasicBlock(
                                           (conv1): Conv2d(128, 128, kernel_size=(3, 3), stride=(1, 1), padding=(1, 1), bias=False)
                                           (bn1): BatchNorm2d(128, eps=1e-05, momentum=0.1, affine=True, track_running_stats=True)
                                           (relu): ReLU(inplace=True)
                                           (conv2): Conv2d(128, 128, kernel_size=(3, 3), stride=(1, 1), padding=(1, 1), bias=False)
                                           (bn2): BatchNorm2d(128, eps=1e-05, momentum=0.1, affine=True, track_running_stats=True)
                                         )
                                       )
                                       (layer3): Sequential(
                                         (0): BasicBlock(
                                           (conv1): Conv2d(128, 256, kernel_size=(3, 3), stride=(2, 2), padding=(1, 1), bias=False)
                                           (bn1): BatchNorm2d(256, eps=1e-05, momentum=0.1, affine=True, track_running_stats=True)
                                           (relu): ReLU(inplace=True)
                                           (conv2): Conv2d(256, 256, kernel_size=(3, 3), stride=(1, 1), padding=(1, 1), bias=False)
                                           (bn2): BatchNorm2d(256, eps=1e-05, momentum=0.1, affine=True, track_running_stats=True)
                                           (downsample): Sequential(
                                             (0): Conv2d(128, 256, kernel_size=(1, 1), stride=(2, 2), bias=False)
                                             (1): BatchNorm2d(256, eps=1e-05, momentum=0.1, affine=True, track_running_stats=True)
                                           )
                                         )
                                         (1): BasicBlock(
                                           (conv1): Conv2d(256, 256, kernel_size=(3, 3), stride=(1, 1), padding=(1, 1), bias=False)
                                           (bn1): BatchNorm2d(256, eps=1e-05, momentum=0.1, affine=True, track_running_stats=True)
                                           (relu): ReLU(inplace=True)
                                           (conv2): Conv2d(256, 256, kernel_size=(3, 3), stride=(1, 1), padding=(1, 1), bias=False)
                                           (bn2): BatchNorm2d(256, eps=1e-05, momentum=0.1, affine=True, track_running_stats=True)
                                         )
                                       )
                                       (layer4): Sequential(
                                         (0): BasicBlock(
                                           (conv1): Conv2d(256, 512, kernel_size=(3, 3), stride=(2, 2), padding=(1, 1), bias=False)
                                           (bn1): BatchNorm2d(512, eps=1e-05, momentum=0.1, affine=True, track_running_stats=True)
                                           (relu): ReLU(inplace=True)
                                           (conv2): Conv2d(512, 512, kernel_size=(3, 3), stride=(1, 1), padding=(1, 1), bias=False)
                                           (bn2): BatchNorm2d(512, eps=1e-05, momentum=0.1, affine=True, track_running_stats=True)
                                           (downsample): Sequential(
                                             (0): Conv2d(256, 512, kernel_size=(1, 1), stride=(2, 2), bias=False)
                                             (1): BatchNorm2d(512, eps=1e-05, momentum=0.1, affine=True, track_running_stats=True)
                                           )
                                         )
                                         (1): BasicBlock(
                                           (conv1): Conv2d(512, 512, kernel_size=(3, 3), stride=(1, 1), padding=(1, 1), bias=False)
                                           (bn1): BatchNorm2d(512, eps=1e-05, momentum=0.1, affine=True, track_running_stats=True)
                                           (relu): ReLU(inplace=True)
                                           (conv2): Conv2d(512, 512, kernel_size=(3, 3), stride=(1, 1), padding=(1, 1), bias=False)
                                           (bn2): BatchNorm2d(512, eps=1e-05, momentum=0.1, affine=True, track_running_stats=True)
                                         )
                                       )
                                       (avgpool): AdaptiveAvgPool2d(output_size=(1, 1))
                                       (fc): Linear(in_features=512, out_features=1000, bias=True)
                                     )
INFO - 12/18/25 13:59:05 - 0:00:00 - ============ Initialized logger ============
INFO - 12/18/25 13:59:05 - 0:00:00 - angle: None
                                     carrier_id: 0
                                     carrier_path: carriers.pth
                                     command: python make_data_radio
…
INFO - 12/18/25 13:59:05 - 0:00:00 - The experiment will be stored in ./cifar10_marked
                                     
INFO - 12/18/25 13:59:05 - 0:00:00 - Running command: python make_data_radioactive.py --carrier_id 0 --carrier_path 'carriers.pth' --data_augmentation random --epochs 10 --img_paths 'cifar10_images/0/0.png,cifar10_images/0/17.png' --lambda_ft_l2 '0.01' --lambda_l2_img '0.0005' --marking_network 'pretrained_resnet18.pth' --dump_path './cifar10_marked' --optimizer 'sgd,lr=1.0'

INFO - 12/18/25 13:59:05 - 0:00:00 - Model: ResNet(
                                       (conv1): Conv2d(3, 64, kernel_size=(7, 7), stride=(2, 2), padding=(3, 3), bias=False)
                                       (bn1): BatchNorm2d(64, eps=1e-05, momentum=0.1, affine=True, track_running_stats=True)
                                       (relu): ReLU(inplace=True)
                                       (maxpool): MaxPool2d(kernel_size=3, stride=2, padding=1, dilation=1, ceil_mode=False)
                                       (layer1): Sequential(
                                         (0): BasicBlock(
                                           (conv1): Conv2d(64, 64, kernel_size=(3, 3), stride=(1, 1), padding=(1, 1), bias=False)
                                           (bn1): BatchNorm2d(64, eps=1e-05, momentum=0.1, affine=True, track_running_stats=True)
                                           (relu): ReLU(inplace=True)
                                           (conv2): Conv2d(64, 64, kernel_size=(3, 3), stride=(1, 1), padding=(1, 1), bias=False)
                                           (bn2): BatchNorm2d(64, eps=1e-05, momentum=0.1, affine=True, track_running_stats=True)
                                         )
                                         (1): BasicBlock(
                                           (conv1): Conv2d(64, 64, kernel_size=(3, 3), stride=(1, 1), padding=(1, 1), bias=False)
                                           (bn1): BatchNorm2d(64, eps=1e-05, momentum=0.1, affine=True, track_running_stats=True)
                                           (relu): ReLU(inplace=True)
                                           (conv2): Conv2d(64, 64, kernel_size=(3, 3), stride=(1, 1), padding=(1, 1), bias=False)
                                           (bn2): BatchNorm2d(64, eps=1e-05, momentum=0.1, affine=True, track_running_stats=True)
                                         )
                                       )
                                       (layer2): Sequential(
                                         (0): BasicBlock(
                                           (conv1): Conv2d(64, 128, kernel_size=(3, 3), stride=(2, 2), padding=(1, 1), bias=False)
                                           (bn1): BatchNorm2d(128, eps=1e-05, momentum=0.1, affine=True, track_running_stats=True)
                                           (relu): ReLU(inplace=True)
                                           (conv2): Conv2d(128, 128, kernel_size=(3, 3), stride=(1, 1), padding=(1, 1), bias=False)
                                           (bn2): BatchNorm2d(128, eps=1e-05, momentum=0.1, affine=True, track_running_stats=True)
                                           (downsample): Sequential(
                                             (0): Conv2d(64, 128, kernel_size=(1, 1), stride=(2, 2), bias=False)
                                             (1): BatchNorm2d(128, eps=1e-05, momentum=0.1, affine=True, track_running_stats=True)
                                           )
                                         )
                                         (1): BasicBlock(
                                           (conv1): Conv2d(128, 128, kernel_size=(3, 3), stride=(1, 1), padding=(1, 1), bias=False)
                                           (bn1): BatchNorm2d(128, eps=1e-05, momentum=0.1, affine=True, track_running_stats=True)
                                           (relu): ReLU(inplace=True)
                                           (conv2): Conv2d(128, 128, kernel_size=(3, 3), stride=(1, 1), padding=(1, 1), bias=False)
                                           (bn2): BatchNorm2d(128, eps=1e-05, momentum=0.1, affine=True, track_running_stats=True)
                                         )
                                       )
                                       (layer3): Sequential(
                                         (0): BasicBlock(
                                           (conv1): Conv2d(128, 256, kernel_size=(3, 3), stride=(2, 2), padding=(1, 1), bias=False)
                                           (bn1): BatchNorm2d(256, eps=1e-05, momentum=0.1, affine=True, track_running_stats=True)
                                           (relu): ReLU(inplace=True)
                                           (conv2): Conv2d(256, 256, kernel_size=(3, 3), stride=(1, 1), padding=(1, 1), bias=False)
                                           (bn2): BatchNorm2d(256, eps=1e-05, momentum=0.1, affine=True, track_running_stats=True)
                                           (downsample): Sequential(
                                             (0): Conv2d(128, 256, kernel_size=(1, 1), stride=(2, 2), bias=False)
                                             (1): BatchNorm2d(256, eps=1e-05, momentum=0.1, affine=True, track_running_stats=True)
                                           )
                                         )
                                         (1): BasicBlock(
                                           (conv1): Conv2d(256, 256, kernel_size=(3, 3), stride=(1, 1), padding=(1, 1), bias=False)
                                           (bn1): BatchNorm2d(256, eps=1e-05, momentum=0.1, affine=True, track_running_stats=True)
                                           (relu): ReLU(inplace=True)
                                           (conv2): Conv2d(256, 256, kernel_size=(3, 3), stride=(1, 1), padding=(1, 1), bias=False)
                                           (bn2): BatchNorm2d(256, eps=1e-05, momentum=0.1, affine=True, track_running_stats=True)
                                         )
                                       )
                                       (layer4): Sequential(
                                         (0): BasicBlock(
                                           (conv1): Conv2d(256, 512, kernel_size=(3, 3), stride=(2, 2), padding=(1, 1), bias=False)
                                           (bn1): BatchNorm2d(512, eps=1e-05, momentum=0.1, affine=True, track_running_stats=True)
                                           (relu): ReLU(inplace=True)
                                           (conv2): Conv2d(512, 512, kernel_size=(3, 3), stride=(1, 1), padding=(1, 1), bias=False)
                                           (bn2): BatchNorm2d(512, eps=1e-05, momentum=0.1, affine=True, track_running_stats=True)
                                           (downsample): Sequential(
                                             (0): Conv2d(256, 512, kernel_size=(1, 1), stride=(2, 2), bias=False)
                                             (1): BatchNorm2d(512, eps=1e-05, momentum=0.1, affine=True, track_running_stats=True)
                                           )
                                         )
                                         (1): BasicBlock(
                                           (conv1): Conv2d(512, 512, kernel_size=(3, 3), stride=(1, 1), padding=(1, 1), bias=False)
                                           (bn1): BatchNorm2d(512, eps=1e-05, momentum=0.1, affine=True, track_running_stats=True)
                                           (relu): ReLU(inplace=True)
                                           (conv2): Conv2d(512, 512, kernel_size=(3, 3), stride=(1, 1), padding=(1, 1), bias=False)
                                           (bn2): BatchNorm2d(512, eps=1e-05, momentum=0.1, affine=True, track_running_stats=True)
                                         )
                                       )
                                       (avgpool): AdaptiveAvgPool2d(output_size=(1, 1))
                                       (fc): Linear(in_features=512, out_features=10, bias=True)
                                     )
INFO - 12/18/25 14:04:55 - 0:00:00 - ============ Initialized logger ============
INFO - 12/18/25 14:04:55 - 0:00:00 - angle: None
                                     carrier_id: 0
                                     carrier_path: carriers.pth
                                     command: python make_data_radioac
…
